ecg_model_1.pt (torch, 15035 bytes, 12 tensors)

conv1.weight f4 [1, 1, 15]
-0.43357506 -0.14587124 -0.045641586 0.23840787 0.29057714 0.41242254 0.59512085 0.70301837
0.6403854 0.3382901 0.09038547 -0.009006584 -0.025856195 -0.039766975 -0.20459062
00000000: 8dfd ddbe 455f 15be acf2 3abd 3121 743e
00000010: 87c6 943e 0c29 d33e d759 183f 03f9 333f
00000020: 4cf0 233f 5c34 ad3e 041c b93d 5a90 13bc
00000030: 5fd0 d3bc b2e2 22bd 3480 51be

conv2.weight f4 [1, 1, 17]
-0.17292358 -0.14117013 -0.08662807 -0.14597398 -0.26569837 -0.47846994 -0.28476903 -0.43312484
-0.33453295 -0.5148906 -0.18992811 0.1575989 0.1729165 0.032335144 0.23761009 0.29084134
0.15251574
00000000: e112 31be e78e 10be 0f6a b1bd 347a 15be
00000010: 9e09 88be 03fa f4be 3fcd 91be 8ac2 ddbe
00000020: e747 abbe dfcf 03bf 847c 42be 9b61 213e
00000030: 0611 313e db71 043d 0f50 733e 28e9 943e
00000040: 162d 1c3e

conv3.weight f4 [2, 1, 19]
-0.27182394 -0.09867624 0.27514333 0.398586 0.36904836 0.26474127 -0.1926847 -0.043529
-0.40494475 -0.23818693 -0.010569782 -0.015191439 0.35430095 0.3625329 0.030553166 -0.067277215
0.0048291725 -0.24408497 -0.3132564 0.16629998 0.065482095 0.3488476 0.017519409 0.14192504
0.039057817 -0.3465376 -0.450991 -0.52143884 -0.53210515 -0.4341798 -0.34381172 -0.19620427
-0.16349916 0.030858036 0.016675917 0.25458327 -0.009788707 0.16740917
00000000: 822c 8bbe c516 cabd 96df 8c3e 7713 cc3e
00000010: e8f3 bc3e 2b8c 873e 234f 45be 774b 32bd
00000020: eb54 cfbe 46e7 73be e12c 2dbc 83e5 78bc
00000030: ef66 b53e ea9d b93e a24a fa3c a3c8 89bd
00000040: 093e 9e3b 69f1 79be 2563 a0be 8b4a 2a3e
00000050: 7a1b 863d 279c b23e dd84 8f3c cc54 113e
00000060: 17fb 1f3d 606d b1be 4be8 e6be 047d 05bf
00000070: 0b38 08bf d14c debe 1708 b0be c6e9 48be
00000080: 536c 27be fec9 fc3c ef9b 883c bd58 823e
00000090: d060 20bc 4f6d 2b3e

conv3.bias f4 [2]
0.31110048 0.1886859
00000000: 9048 9f3e e036 413e

conv4.depthwise.weight f4 [2, 1, 21]
-0.17245473 -0.012338052 0.15409948 -0.08095404 -0.42607215 -0.05073592 0.25707862 0.10630288
-0.2878681 -0.26002073 0.21955048 0.12255276 0.09158681 -0.20461711 0.0068716775 0.05080514
0.0530313 0.2326134 -0.101457305 0.3401495 -0.020224294 0.041441508 0.2059562 0.27597618
-0.16338846 0.09437428 0.37829515 0.32416257 0.25631353 -0.14066213 -0.37004313 -0.44456196
-0.28868335 -0.03053678 0.05142863 0.035064936 -0.005882773 0.008583705 -0.2009131 0.12147209
0.15606998 -0.21774061
00000000: f997 30be 8a25 4abc 41cc 1d3e 3bcb a5bd
00000010: 2126 dabe 78d0 4fbd cf9f 833e 53b5 d93d
00000020: 7363 93be 7021 85be d7d1 603e f1fc fa3d
00000030: de91 bb3d 2687 51be cf2b e13b 0d19 503d
00000040: 5937 593d 3532 6e3e d9c8 cfbd 1328 ae3e
00000050: 6bad a5bc 92be 293d 2fe6 523e c04c 8d3e
00000060: 4e4f 27be 4d47 c13d e7af c13e a3f8 a53e
00000070: 873b 833e bc09 10be 4b76 bdbe a09d e3be
00000080: 4ece 93be 4528 fabc d4a6 523d 40a0 0f3d
00000090: 47c4 c0bb aba2 0c3c 2abc 4dbe 5cc6 f83d
000000a0: cfd0 1f3e 65f7 5ebe

conv4.depthwise.bias f4 [2]
0.49672028 -0.12948753
00000000: 1f52 fe3e 6198 04be

conv4.pointwise.weight f4 [4, 2, 1]
-0.18469985 0.80172276 0.5499331 0.35140157 -0.7718576 0.57866496 0.8289612 0.4619344
00000000: f521 3dbe b43d 4d3f 6ac8 0c3f e8ea b33e
00000010: 7698 45bf 6323 143f cd36 543f aa82 ec3e

conv4.pointwise.bias f4 [4]
-0.26885203 0.6159985 -0.8188313 0.3010201
00000000: f9a6 89be 14b2 1d3f ee9e 51bf 4e1f 9a3e

fc1.0.weight f4 [16, 152]
0.2914539 0.24157938 0.2132328 -0.021200212 -0.10298155 -0.044986457 0.007345031 -0.020775614
-0.019606238 -0.049063403 0.11506156 0.17526752 0.19547784 0.08074227 -0.07948106 -0.2876287
-0.5574686 -0.2863876 -0.23854673 -0.034738217 -0.05763116 -0.09573832 -0.07686759 -6.373759e-05
0.11395262 0.22328357 0.14651302 0.033969615 -0.0195144 -0.017514367 0.039806467 -0.025059829
-0.029261205 -0.0072809816 -0.08241014 -0.011434284 -0.039488617 -0.16140917 0.14780387 0.22888324
0.10714808 0.13393985 0.059388455 0.102545835 0.10689377 0.11038837 0.21096487 0.15004063
0.07266834 0.02301946 0.22885069 0.1978021 0.07893525 -0.07072148 -0.17481308 -0.045411773
0.010071729 0.12651287 0.053125862 -0.042145748 -0.054259263 0.028098542 0.29971284 0.2696625
0.08885988 0.20161822 0.19011652 0.09418339 -0.008440282 0.028572887 0.18454005 0.21516043
0.089221835 0.09380958 0.13976665 -0.032233827 0.032843012 0.18118577 0.031251468 -0.027742133
-0.19530171 -0.06318416 0.13665654 -0.037131205 0.016372584 -0.12981553 -0.024162414 0.061196472
-0.010804763 -0.07149312 0.019913996 -0.20483148 -0.4192546 -0.2822535 -0.15729114 -0.03031525
-0.16938375 -0.09726551 -0.021891424 -0.11661716 -0.053640604 0.0716278 0.23258118 0.074361034
-0.07533801 -0.11766943 -0.0059777056 -0.05198984 -0.07309197 -0.10345462 0.007274968 0.072079994
-0.032917276 -0.24748965 0.10267619 0.15153353 0.17670706 0.10080126 0.17877471 0.053155825
-0.05635229 0.18647468 0.12544712 0.07266145 0.17041858 -0.008646897 0.2616646 0.15485042
-0.016800934 -0.20197769 -0.20833944 -0.048853394 -0.13828653 0.049611274 0.030303698 -0.07624684
-0.052415155 0.06972618 0.28554803 0.24629979 0.004673768 0.20607302 0.19553377 0.114051804
-0.05696071 -0.07053337 0.18659168 0.2102659 -0.014609756 0.044007763 0.020626718 -0.007197473
0.07701483 0.13362518 0.02695126 -0.026618643 0.041798122 0.024713665 -0.051372245 -0.2478578
-0.33217457 -0.21531028 -0.19921596 0.05493662 0.07040696 0.16755304 0.016580842 0.15749423
0.11143258 0.12903069 0.096987695 0.15161397 0.2173339 0.1238479 0.07011372 -0.04749441
-0.030919936 -0.06976684 -0.0056215315 -0.16880606 -0.08638952 -0.081602685 -0.022348572 0.09626017
0.05696464 -0.042853452 -0.0055836886 0.017807351 0.010320837 -0.14180812 0.119837895 0.10552401
0.097852334 0.044840746 -0.03346171 -0.0044505172 0.00047567755 0.0249953 -0.068108544 -0.24528126
-0.33913246 0.04741617 0.23780167 0.11661934 0.14607264 0.14142577 0.16573931 0.068460755
0.035474557 0.20536147 0.21566482 0.047613785 -0.025376607 -0.033146214 0.096248604 0.17899947
0.08419613 -0.010329109 -0.1414339 -0.08611405 0.16186528 0.024052082 0.123240426 -0.034166567
0.094003975 0.057844404 0.04027036 -0.06483057 0.08831747 0.058880787 -0.041203965 -0.079424165
0.056554493 0.2359096 0.098347165 -0.18650305 -0.28895116 -0.30207124 -0.13534546 -0.053948503
0.04473562 0.05944302 0.14623217 0.006690925 0.01284092 0.090615496 0.20956753 0.16151376
0.2424921 0.018715996 -0.1182511 -0.073820874 -0.11850176 -0.04629396 -0.15860291 -0.13936679
00000000: 7239 953e 9660 773e b359 5a3e 11ac adbc
00000010: fee7 d2bd b843 38bd 96ae f03b 9f31 aabc
00000020: 439d a0bc b5f6 48bd 65a5 eb3d 5479 333e
00000030: 582b 483e 345c a53d f7c6 a2bd 1244 93be
00000040: 43b6 0ebf 65a1 92be 9845 74be a949 0ebd
00000050: a70e 6cbd 7412 c4bd c16c 9dbd dcaa 85b8
00000060: fe5f e93d 73a4 643e 8207 163e b923 0b3d
00000070: aadc 9fbc 4a7a 8fbc 1b0c 233d 454a cdbc
00000080: 32b5 efbc 4d95 eebb a6c6 a8bd dd56 3bbc
00000090: d1be 21bd 7248 25be e659 173e 5e60 6a3e
000000a0: 7470 db3d 8727 093e 4f41 733d 8d03 d23d
000000b0: 1feb da3d 4c13 e23d 2d07 583e 40a4 193e
000000c0: 23d3 943d 4e93 bc3c d657 6a3e a28c 4a3e
000000d0: cea8 a13d 6cd6 90bd 3302 33be b201 3abd
000000e0: e503 253c 978c 013e 819a 593d 05a1 2cbd
000000f0: f63e 5ebd ea2e e63c f673 993e 3411 8a3e
00000100: 2bfc b53d 0275 4e3e e8ad 423e 39e3 c03d
00000110: 1c49 0abc b011 ea3c 11f8 3c3e 0453 5c3e
00000120: f0b9 b63d 3d1f c03d fd1e 0f3e 9e07 04bd
00000130: 6586 063d c388 393e 8a01 003d 7843 e3bc
00000140: 2cfd 47be b266 81bd b1ef 0b3e e416 18bd
00000150: cc1f 863c 5dee 04be 41f0 c5bc 27a9 7a3d
00000160: 7606 31bc fc6a 92bd ad22 a33c 58bf 51be
00000170: 8aa8 d6be 8883 90be ee10 21be b057 f8bc
00000180: ef72 2dbe 2433 c7bd a555 b3bc fad4 eebd
00000190: 40b6 5bbd 99b1 923d c329 6e3e 994a 983d
000001a0: d14a 9abd acfc f0bd a1e0 c3bb 4cf3 54bd
000001b0: 3eb1 95bd 04e0 d3bd db62 ee3b ad9e 933d
000001c0: 44d4 06bd ed6d 7dbe e547 d23d 9b2b 1b3e
000001d0: b2f2 343e e470 ce3d b810 373e ecb9 593d
000001e0: a9d1 66bd 38f3 3e3e 3675 003e 87cf 943d
000001f0: 3582 2e3e b7ab 0dbc e7f8 853e 1c91 1e3e
00000200: 1da2 89bc 3dd3 4ebe ef56 55be 7f1a 48bd
00000210: fc9a 0dbe 3135 4b3d 763f f83c 4e27 9cbd
00000220: 46b1 56bd 99cc 8e3d 5a33 923e 0336 7c3e
00000230: 6826 993b ce04 533e 013a 483e fe93 e93d
00000240: a24f 69bd cd73 90bd e411 3f3e f24f 573e
00000250: c25d 6fbc 7c41 343d 5df9 a83c c8d8 ebbb
00000260: f4b9 9d3d 0ad5 083e e4c8 dc3c 570f dabc
00000270: 8234 2b3d 5074 ca3c b46b 52bd 6fce 7dbe
00000280: c912 aabe 4c7a 5cbe 45ff 4bbe 3905 613d
00000290: 8631 903d 0693 2b3e 8cd4 873c 2b46 213e
000002a0: c436 e43d 9f20 043e 7ca1 c63d b140 1b3e
000002b0: c78c 5e3e f8a3 fd3d c897 8f3d 8089 42bd
000002c0: ce4b fdbc ebe1 8ebd d334 b8bb 7fdb 2cbe
000002d0: fdec b0bd 4f1f a7bd 5a14 b7bc 0d24 c53d
000002e0: c153 693d 1a87 2fbd 60f7 b6bb b9e0 913c
000002f0: ba18 293c 2636 11be 926d f53d f91c d83d
00000300: ce66 c83d eeaa 373d 250f 09bd a5d5 91bb
00000310: 5c64 f939 f2c2 cc3c 7e7c 8bbd 032b 7bbe
00000320: c5a2 adbe 7537 423d 4882 733e 1fd6 ee3d
00000330: 1194 153e ebd1 103e 91b7 293e 2735 8c3d
00000340: c54d 113d 474a 523e 3dd7 5c3e ac06 433d
00000350: 9ae2 cfbc 53c4 07bd fd1d c53d a34b 373e
00000360: 056f ac3d 6c3b 29bc 0cd4 10be 905c b0bd
00000370: 03c0 253e df08 c53c 7a65 fc3d 3ef2 0bbd
00000380: 2885 c03d 41ee 6c3d 88f2 243d e4c5 84bd
00000390: cadf b43d fb2c 713d 7dc5 28bd 23a9 a2bd
000003a0: afa5 673d 4992 713e 3d6a c93d a8fa 3ebe
000003b0: 68f1 93be 15a9 9abe 0098 0abe 1bf9 5cbd
000003c0: b33c 373d 867a 733d e3bd 153e 8c3f db3b
000003d0: b962 523c 9e94 b93d df98 563e dd63 253e
000003e0: d94f 783e 4a52 993c a22d f2bd 662f 97bd
000003f0: 0db1 f2bd bc9e 3dbd cd68 22be 2bb6 0ebe

fc1.0.bias f4 [16]
0.047401115 0.19984001 -0.2659758 -0.19508944 -0.14896895 0.030790636 0.071520925 0.38993
-0.050944515 0.16361171 -0.0014085657 0.09054842 -0.19663149 -0.22214265 -0.27069402 -0.027950816
00000000: ac27 423d dca2 4c3e fb2d 88be 87c5 47be
00000010: 518b 18be a53c fc3c 9079 923d e8a4 c73e
00000020: 32ab 50bd d489 273e 9f9f b8ba 7371 b93d
00000030: c459 49be 5d79 63be 6898 8abe 1cf9 e4bc

fc2.weight f4 [5, 16]
0.21801297 0.14861597 -0.31384954 -0.51650023 -0.27152485 0.08164978 0.12260785 0.061140295
0.040068462 0.18319699 0.10665774 0.14512546 -0.21234353 -0.030428845 -0.41477242 0.17182158
0.09051875 0.076814 -0.5738357 0.06667376 0.39968285 -0.07634976 -0.6131946 -0.035067346
-0.2256423 0.09596004 -0.103995256 0.2953768 -0.13636558 -0.29050058 -0.8871054 0.08972011
0.29546314 0.37433285 0.49077025 0.05421818 0.23400968 0.15124086 0.12466343 -0.22620396
-0.19119889 -0.009113588 0.23780836 -0.05263171 0.40560797 -0.34598324 0.3935891 -0.025223687
-0.25289458 -0.6071247 -0.7495637 0.34328684 -0.3854698 -0.5459178 0.45543176 0.11621898
-0.55309826 -0.45196232 0.18972708 -0.52689224 0.27454636 0.11501003 0.0493181 -0.4835257
-0.7332332 -2.0491672 0.4486053 0.1745011 0.47298408 0.36465332 -1.3346553 -0.22060224
-0.21730098 -0.08741267 -0.8475693 -0.4238462 -2.1066692 0.15329446 -1.0739132 0.20239909
00000000: cb3e 5f3e c92e 183e e3b0 a0be 5c39 04bf
00000010: 4e05 8bbe 0038 a73d d319 fb3d 3f6e 7a3d
00000020: d41e 243d fe97 3b3e 606f da3d c59b 143e
00000030: 9570 59be ea45 f9bc 0d5d d4be fff1 2f3e
00000040: e561 b93d a950 9d3d e5e6 12bf 418c 883d
00000050: 3ba3 cc3e 435d 9cbd 52fa 1cbf c7a2 0fbd
00000060: c60e 67be b386 c43d 77fb d4bd a13b 973e
00000070: 6ba3 0bbe 7ebc 94be 5719 63bf 2dbf b73d
00000080: f246 973e 8ea8 bf3e 3d46 fb3e e213 5e3d
00000090: 3ca0 6f3e e2de 1a3e 8a4f ff3d 03a2 67be
000000a0: a4c9 43be 2951 15bc 0984 733e 5994 57bd
000000b0: d9ab cf3e b724 b1be 8384 c93e e8a1 cebc
000000c0: 667b 81be 866c 1bbf 68e3 3fbf 4bc3 af3e
000000d0: 4c5c c5be 45c1 0bbf 5a2e e93e 3704 ee3d
000000e0: d997 0dbf 9b67 e7be d147 423e 69e2 06bf
000000f0: 5791 8c3e 618a eb3d c701 4a3d ae90 f7be
00000100: 2cb5 3bbf 8e25 03c0 98af e53e 6bb0 323e
00000110: f82a f23e d7b3 ba3e fcd5 aabf 8ee5 61be
00000120: 2684 5ebe 6a05 b3bd 4dfa 58bf 5e02 d9be
00000130: abd3 06c0 39f9 1c3e fd75 89bf b541 4f3e

fc2.bias f4 [5]
0.8986648 -0.9548458 -0.82183766 0.37582812 -0.05389421
00000000: e50e 663f c670 74bf f463 52bf 8b6c c03e
00000010: 2dc0 5cbd
