ecg_model_2.pt (torch, 25595 bytes, 13 tensors)

conv1.weight f4 [1, 1, 15]
-0.068802185 -0.08090859 0.103825286 0.32513002 0.26226115 0.17161776 0.47135845 0.5412821
0.38197762 0.064204216 0.062014032 -0.15001515 0.08686725 0.15465188 0.025214152
00000000: 29e8 8cbd 67b3 a5bd 5aa2 d43d 7177 a63e
00000010: 1847 863e 91bc 2f3e e555 f13e 7791 0a3f
00000020: 9292 c33e 807d 833d 6d02 7e3d 929d 19be
00000030: 75e7 b13d 105d 1e3e e98d ce3c

conv2.weight f4 [2, 1, 17]
-0.29049882 -0.14849478 -0.09401668 0.25973052 0.1962041 0.11573706 0.32893172 0.08899742
-0.15755643 -0.18839078 -0.13966595 -0.16352552 0.16133577 0.38251242 0.29250666 0.23498353
-0.030100634 -0.26299077 -0.17604472 0.068238765 -0.009470472 0.41421634 0.11356897 0.4321598
0.20125249 -0.043111157 0.39241257 0.591053 0.2996724 0.21168244 0.22160578 -0.18695284
0.014735417 0.12241423
00000000: 43bc 94be 040f 18be d18b c0bd 66fb 843e
00000010: bae9 483e 8d07 ed3d bd69 a83e 4844 b63d
00000020: 7956 21be 83e9 40be 9704 0fbe 3c73 27be
00000030: 3435 253e abd8 c33e 6fc3 953e 869f 703e
00000040: 9b95 f6bc baa6 86be 1145 34be c4c0 8b3d
00000050: 0a2a 1bbc 2a14 d43e d996 e83d 0d44 dd3e
00000060: 2215 4e3e 5395 30bd 4dea c83e 404f 173f
00000070: a96e 993e 48c3 583e a0ec 623e 9170 3fbe
00000080: d26c 713c 50b4 fa3d

conv2.bias f4 [2]
0.015896836 0.16205482
00000000: 153a 823c b3f1 253e

conv3.weight f4 [4, 2, 19]
-0.18537056 -0.17481261 0.07186609 0.055241242 0.061308585 -0.19149148 -0.1946942 -0.08847729
-0.034358893 -0.23392293 -0.04483099 -0.16104436 0.14684205 0.10867221 -0.1630252 -0.091028325
-0.01108539 0.11115412 0.1520823 0.061740663 0.033184584 0.17676666 -0.009495875 -0.030972917
0.14171273 -0.084503055 -0.0998363 -0.12920935 -0.12844782 -0.12325534 -0.115504995 -0.067844026
0.16197798 -0.018633746 0.2804378 0.12235363 0.09936796 0.073031366 0.002544038 -0.24519812
0.048799597 0.4122141 0.0074660126 -0.14729889 -0.36710143 -0.10858918 0.003207069 -0.0900229
-0.08121935 -0.41503763 -0.555805 -0.28615162 -0.22819567 0.08084414 -0.056962036 -0.23673783
-0.099887416 0.16353318 0.28359458 -0.009853012 -0.15433179 -0.268947 0.18682292 0.4591526
0.19780335 0.10722121 -0.05414797 -0.11485115 -0.2653875 0.121628806 0.07530599 -0.09882912
-0.104793586 -0.29364136 0.037756413 -0.0019153735 -0.31098104 -0.21088606 -0.39709815 -0.50653636
-0.1652148 0.114117876 0.40389583 0.04885743 -0.22102042 -0.5160855 -0.04894438 0.11381844
0.27224037 0.07178552 -0.4938387 -0.42692238 -0.10853649 0.50231606 1.1005368 0.012479644
-0.23158698 -0.090622 0.2778925 0.34781113 0.2637156 -0.3726089 -0.242936 0.22460486
0.53960204 0.31759694 -0.26484868 -0.53508687 -0.41599452 0.30506867 0.62848973 0.12749036
-0.1886488 -0.39785483 0.24714614 0.15119517 0.08442427 -0.014701568 0.0025711574 0.005122218
-0.17378113 -0.26604834 -0.41275957 -0.38408664 -0.24991065 -0.23648041 -0.13302298 -0.27811545
-0.20822619 0.12822942 0.031029742 0.13995302 0.013661774 -0.09546763 0.13844718 0.18329157
0.3068221 0.28341794 0.41120437 0.20406678 -0.11608856 -0.35997012 -0.54659104 -0.5579511
-0.45110148 -0.26081923 0.01610255 0.3061218 0.3123133 0.32004702 0.117073335 -0.020833427
00000000: c8d1 3dbe 1402 33be 872e 933d a444 623d
00000010: b61e 7b3d 5816 44be eb5d 47be 9533 b5bd
00000020: e9bb 0cbd 7e89 6fbe b3a0 37bd d0e8 24be
00000030: c35d 163e 898f de3d 14f0 26be 0f6d babd
00000040: 7f9f 35bc c5a4 e33d 76bb 1b3e c7e3 7c3d
00000050: 8fec 073d 5202 353e 9694 1bbc eaba fdbc
00000060: 241d 113e f00f adbd f976 ccbd 754f 04be
00000070: d387 03be 4c6d fcbd e28d ecbd cff1 8abd
00000080: 8edd 253e cca5 98bc 8b95 8f3e 8a94 fa3d
00000090: 6e81 cb3d 7891 953d e0b9 263b 3715 7bbe
000000a0: 16e2 473d ba0d d33e 74a5 f43b 85d5 16be
000000b0: b8f4 bbbe 0164 debd b02d 523b ed5d b8bd
000000c0: 5556 a6bd d07f d4be 3d49 0ebf 7782 92be
000000d0: 20ac 69be 9d91 a53d 0651 69bd 676b 72be
000000e0: c691 ccbd 3e75 273e 4f33 913e 876e 21bc
000000f0: 2709 1ebe 6cb3 89be 824e 3f3e 0d16 eb3e
00000100: f68c 4a3e cb96 db3d 43ca 5dbd 1437 ebbd
00000110: dfe0 87be 8618 f93d 073a 9a3d ec66 cabd
00000120: 059e d6bd 2958 96be 78a6 1a3d 450d fbba
00000130: e838 9fbe 84f2 57be 7350 cbbe 5eac 01bf
00000140: 122e 29be a2b6 e93d 6fcb ce3e bb1e 483d
00000150: 2d53 62be 2e1e 04bf e779 48bd a419 e93d
00000160: 1763 8b3e 4904 933d 6dd8 fcbe 9295 dabe
00000170: 6148 debd c997 003f 64de 8c3f 6c77 4c3c
00000180: 2325 6dbe 0798 b9bd ed47 8e3e 4d14 b23e
00000190: bb05 873e 98c6 bebe 37c4 78be d1fe 653e
000001a0: 5c23 0a3f 119c a23e 3f9a 87be 74fb 08bf
000001b0: 3cfd d4be f631 9c3e b4e4 203f d58c 023e
000001c0: 272d 41be a1b3 cbbe e113 7d3e e8d2 1a3e
000001d0: a2e6 ac3d d8de 70bc dd80 283b 47d8 a73b
000001e0: aef3 31be 7d37 88be 3955 d3be 01a7 c4be
000001f0: 94e8 7fbe ec27 72be 2d37 08be 2665 8ebe
00000200: 3f39 55be 934e 033e 1632 fe3c d84f 0f3e
00000210: a2d5 5f3c 8884 c3bd 19c5 0d3e c9b0 3b3e
00000220: c917 9d3e 281c 913e 6189 d23e e2f6 503e
00000230: d7bf edbd 014e b8be 64ed 0bbf e2d5 0ebf
00000240: c6f6 e6be 198a 85be 7fe9 833c ffbb 9c3e
00000250: 87e7 9f3e 34dd a33e 25c4 ef3d ddaa aabc

conv3.bias f4 [4]
0.16160579 -0.09904137 -0.04613167 0.02429895
00000000: fd7b 253e 34d6 cabd 90f4 3cbd 970e c73c

conv4.depthwise.weight f4 [4, 1, 21]
-0.24371374 -0.11004727 -0.094449185 0.047701973 0.10676188 -0.06398704 -0.16073792 -0.08376387
-0.18886249 -0.021238763 0.16563183 0.25665593 0.2374489 -0.10696362 0.17810245 -0.027383696
0.18374926 -0.06529767 0.07727494 0.18919937 -0.2563622 -0.38093758 -0.07875444 -0.054064453
-0.16028371 -0.01966234 0.28504702 -0.1715042 0.42279962 0.38660827 -0.15009686 0.27797312
0.028096432 -0.092334546 0.13189824 0.06175391 0.13430129 0.09552535 -0.1837971 0.21318266
0.0055006295 -0.07425739 0.11212958 -0.4084575 0.116715126 0.3463583 -0.12631512 -0.46342787
0.45137557 -0.209561 -0.37665313 0.7578865 0.13770187 -0.4772072 0.23141547 -0.37734005
0.3665179 0.02042448 -0.47852996 0.12617491 -0.2104813 0.31825793 0.16848573 0.062524654
-0.15467933 -0.4671384 -0.41466394 -0.24994013 0.19952385 0.36825478 0.06169793 -0.15488482
0.043223456 0.36498618 0.13995972 0.019374844 -0.21017838 0.10682489 0.21218741 0.22217378
-0.043150898 -0.027115414 -0.10247707 0.22894873
00000000: 1890 79be 7760 e1bd 936e c1bd 2563 433d
00000010: f9a5 da3d a30b 83bd 7b98 24be 648c abbd
00000020: 2b65 41be eafc adbc 649b 293e 6868 833e
00000030: ce25 733e be0f dbbd 7d60 363e c653 e0bc
00000040: c428 3c3e c9ba 85bd 5342 9e3d 7bbd 413e
00000050: e841 83be 400a c3be 024a a1bd b072 5dbd
00000060: 6a21 24be ea12 a1bc aff1 913e cc9e 2fbe
00000070: 3179 d83e 85f1 c53e feb2 19be 7e52 8e3e
00000080: 7d2a e63c e519 bdbd 5510 073e abf1 7c3d
00000090: 4786 093e cba2 c33d 4f35 3cbe 8e4c 5a3e
000000a0: a03e b43b 4214 98bd 31a4 e53d 5721 d1be
000000b0: 5708 ef3d e055 b13e c058 01be 6b46 edbe
000000c0: b31a e73e 2997 56be aed8 c0be da04 423f
000000d0: b801 0d3e 8154 f4be 2df8 6c3e b732 c1be
000000e0: 3ca8 bb3e 3d51 a73c e101 f5be ff33 013e
000000f0: 6988 57be b4f2 a23e 8687 2c3e ed0c 803d
00000100: 4264 1ebe c42c efbe d54e d4be 4ef0 7fbe
00000110: fb4f 4c3e e48b bc3e f8b6 7c3d 209a 1ebe
00000120: 140b 313d 78df ba3e 9a51 0f3e feb7 9e3c
00000130: 0039 57be 02c7 da3d a847 593e 8681 633e
00000140: ffbe 30bd 2521 debc 80df d1bd 8971 6a3e

conv4.depthwise.bias f4 [4]
-0.3072729 -0.2851766 0.29460645 -0.24040462
00000000: e052 9dbe ab02 92be a8d6 963e a12c 76be

conv4.pointwise.weight f4 [8, 4, 1]
0.33336356 0.5071 0.88966846 0.52993584 -0.1434222 0.345109 0.29158232 0.45417643
0.38248768 -0.047951985 0.58246934 -0.21275048 -0.14899056 -0.022302136 0.6332562 -0.23271044
-0.5262833 -0.110653944 -0.27798736 -0.016997395 0.11965785 0.29150108 -0.26012915 0.08135445
0.12107084 -0.22679737 -0.26219615 -0.3283737 0.47854564 -0.3425712 -0.80399567 -0.315906
00000000: a1ae aa3e 4ed1 013f 50c1 633f e0a9 073f
00000010: 45dd 12be 20b2 b03e 474a 953e d089 e83e
00000020: 6dd5 c33e 4d69 44bd b61c 153f 43db 59be
00000030: fb90 18be f8b2 b6bc 141d 223f a54b 6ebe
00000040: 81ba 06bf 899e e2bd 5c54 8ebe 1f3e 8bbc
00000050: 2d0f f53d a13f 953e a62f 85be 299d a63d
00000060: fdf3 f73d 923d 68be 933e 86be 9920 a8be
00000070: ef03 f53e 7e65 afbe a9d2 4dbf 6ebe a1be

conv4.pointwise.bias f4 [8]
0.2904417 -0.33824325 -0.6838724 0.27692503 0.44289842 -0.17283325 0.06640704 -0.5402966
00000000: c6b4 943e 382e adbe 4312 2fbf 1ec9 8d3e
00000010: 95c3 e23e 33fb 30be 6a00 883d e150 0abf

fc1.0.weight f4 [16, 304]
-0.18464915 -0.089750044 0.14380175 -0.036540035 -0.09762194 0.00026351685 -0.041508388 0.15208904
0.09012688 -0.3220043 -0.13716592 0.08180049 -0.06050199 -0.0627479 0.14967906 -0.021582799
0.2897606 0.17231575 0.07784474 0.021650353 0.054973997 0.11622203 0.081120595 -0.05799932
-0.014414011 0.034497187 -0.071367286 -0.20441256 -0.032088425 -0.15328473 -0.07095687 -0.07205784
-0.101748414 -0.06538266 -0.039212886 -0.0060992897 0.014577688 -0.07195201 0.02214748 0.013313238
0.14222406 0.003614175 0.009922161 0.042601444 0.10391768 0.19824415 0.16511479 -0.09043846
-0.010283813 0.1460386 -0.03413514 0.059934013 0.2246658 0.14376733 0.3987705 0.21100236
0.102486834 0.06286305 0.111825824 0.18496075 0.18289296 0.045920286 -0.01731419 0.010316058
0.07501874 -0.06718744 -0.015850669 0.049212594 0.030819671 0.08245842 0.02746234 0.069675826
0.09688216 0.14959061 0.02374876 0.06989959 -0.119261436 0.19698612 0.36168113 0.07873986
0.18711658 0.05333179 0.037391957 0.08503499 0.06949483 -0.09734175 0.032439806 0.28260735
0.053224497 0.2038425 0.3009628 -0.20450191 -0.10084323 0.059138935 0.09815783 0.022795461
-0.007513736 -0.08341022 0.06299856 0.009033258 0.2933441 0.26870927 0.053553972 0.10263533
0.22975406 0.1870264 0.08070346 0.27414516 0.30805618 0.32258916 0.15745524 0.09723936
0.18890275 0.13184336 -0.46410465 -0.17058842 0.10436876 -0.21703872 -0.08599531 -0.20325635
-0.2592699 -0.076834284 -0.023545668 -0.51158476 -0.0912311 -0.07253342 -0.15771462 -0.0068942416
0.15628251 -0.54639393 -0.32721287 -0.20671368 -0.046932753 -0.06193003 -0.19256574 -0.22950882
-0.12541619 -0.05139061 -0.005599941 0.0012775451 -0.08419396 -0.039046545 0.13454086 -0.10441103
-0.1508712 -0.10381808 -0.06434108 -0.19678576 -0.17337157 -0.14765593 -0.15586497 -0.16356857
-0.08898443 -0.05713828 -0.67675644 -0.10022638 -0.36328405 -0.38007385 -0.19384705 -0.28358564
-0.066758096 0.055384014 -0.019258479 -0.10572239 -0.013695486 -0.15335956 -0.32420248 -0.089671716
-0.21609598 -0.30517238 -0.2170027 -0.12919682 -0.15047449 -0.10988879 -0.15218405 0.012312636
-0.1032579 -0.09536674 -0.03535616 0.034788657 -0.12440983 -0.08926736 -0.11084273 -0.15154596
-0.3018115 -0.30727047 -0.27853495 -0.08399581 -0.13831666 -0.085052915 0.26438472 -0.0028839146
0.013387177 0.11048673 0.026213486 0.115014724 0.12378885 0.07259787 0.050973285 0.089422196
-0.00507585 0.08523753 0.086435765 0.12994824 0.14110367 0.24900573 0.28508475 0.11056713
0.07553235 0.12430047 0.07706513 0.12851164 0.10888413 0.05473338 0.042525887 0.01295078
0.024779703 0.01094671 -0.0048220507 0.027395042 0.0987876 -0.021630257 0.0057583842 0.07434031
0.17521614 0.063578114 0.026325509 -0.012109693 0.032600693 0.0072272625 -0.051835917 -0.036744814
0.07377538 -0.032937035 -0.026942486 -0.20930478 -0.11792714 0.06477256 0.06973118 -0.11678984
-0.036067724 -0.040754687 -0.17119579 -0.03851006 -0.4345963 -0.17827065 0.016635694 -0.043522224
-0.080158904 -0.15779974 -0.04995214 -0.036010657 -0.037490588 -0.0010936327 0.02637347 0.1087799
00000000: ab14 3dbe dfce b7bd c440 133e 01ab 15bd
00000010: 03ee c7bd a228 8a39 b304 2abd 3bbd 1b3e
00000020: 7194 b83d bfdd a4be 3975 0cbe 0487 a73d
00000030: efd0 77bd f981 80bd 7845 193e 69ce b0bc
00000040: 805b 943e 8a73 303e 106d 9f3d 155c b13c
00000050: 6a2c 613d d105 ee3d 8e22 a63d b290 6dbd
00000060: be28 6cbc ec4c 0d3d 0329 92bd 8751 51be
00000070: 276f 03bd acf6 1cbe d651 91bd 1093 93bd
00000080: 7961 d0bd 58e7 85bd b19d 20bd 8ddc c7bb
00000090: 41d7 6e3c 935b 93bd a26e b53c c41f 5a3c
000000a0: 2fa3 113e cbdb 6c3b 8f90 223c da7e 2e3d
000000b0: cbd2 d43d 8400 4b3e da13 293e cd37 b9bd
000000c0: 707d 28bc 258b 153e 4ad1 0bbd 5e7d 753d
000000d0: cb0e 663e be37 133e a62b cc3e 0111 583e
000000e0: 9ee4 d13d 58be 803d f004 e53d 5a66 3d3e
000000f0: 4b48 3b3e e916 3c3d 7dd6 8dbc af04 293c
00000100: 6da3 993d 9299 89bd 43d9 81bc 2593 493d
00000110: 8979 fc3c f6df a83d b4f8 e03c 33b2 8e3d
00000120: 276a c63d 482e 193e c28c c23c 8427 8f3d
00000130: 573f f4bd bbb6 493e 452e b93e 5d42 a13d
00000140: 7d9b 3f3e 6f72 5a3d 4f28 193d d326 ae3d
00000150: 4e53 8e3d 1d5b c7bd 9adf 043d e9b1 903e
00000160: ee01 5a3d 17bc 503e cc17 9a3e f368 51be
00000170: e586 cebd ab3b 723d f906 c93d 8cbd ba3c
00000180: c935 f6bb fad2 aabd 6405 813d 3b00 143c
00000190: 3331 963e 4394 893e 695b 5b3d 7932 d23d
000001a0: a644 6b3e d983 3f3e db47 a53d c15c 8c3e
000001b0: 8ab9 9d3e 682a a53e f23b 213e 6e25 c73d
000001c0: b96f 413e f201 073e 209f edbe bbae 2ebe
000001d0: 4abf d53d 663f 5ebe 4f1e b0bd 6f22 50be
000001e0: 06bf 84be 4b5b 9dbd d8e2 c0bc 38f7 02bf
000001f0: 5fd7 babd 678c 94bd f17f 21be 17e9 e1bb
00000200: 8608 203e 79e0 0bbf 7288 a7be c0ac 53be
00000210: 8f3c 40bd 58aa 7dbd f42f 45be 5c04 6bbe
00000220: 1a6d 00be f67e 52bd b67f b7bb 4d73 a73a
00000230: e26d acbd 45ef 1fbd 14c5 093e 73d5 d5bd
00000240: fb7d 1abe 939e d4bd 42c5 83bd 3582 49be
00000250: 5188 31be 1e33 17be 119b 1fbe 857e 27be
00000260: 783d b6bd d409 6abd e93f 2dbf 7d43 cdbd
00000270: 5e00 babe 0a99 c2be d77f 46be 2332 91be
00000280: 78b8 88bd 59da 623d f5c3 9dbc fb84 d8bd
00000290: 0863 60bc 4a0a 1dbe defd a5be cea5 b7bd
000002a0: 4448 5dbe 8e3f 9cbe f535 5ebe 2c4c 04be
000002b0: fc15 1abe 600d e1bd 23d6 1bbe f0ba 493c
000002c0: e178 d3bd a34f c3bd 9fd1 10bd 8d7e 0e3d
000002d0: 95ca febd ced1 b6bd 8301 e3bd dd2e 1bbe
000002e0: 0987 9abe 8e52 9dbe 229c 8ebe ff05 acbd
000002f0: e2a2 0dbe 3930 aebd 6f5d 873e 0f00 3dbb
00000300: e455 5b3c de46 e23d aabd d63c d78c eb3d
00000310: 0285 fd3d 31ae 943d 5dc9 503d fc22 b73d
00000320: 5153 a6bb 0491 ae3d 3c05 b13d 2711 053e
00000330: 7b7d 103e 5cfb 7e3e a1f6 913e 0571 e23d
00000340: b4b0 9a3d 3f91 fe3d 53d4 9d3d 8e98 033e
00000350: a5fe de3d 1c30 603d a02f 2e3d 822f 543c
00000360: cefe ca3c d459 333c 4b02 9ebb 916b e03c
00000370: 2751 ca3d f031 b1bc d4b0 bc3b bc3f 983d
00000380: dc6b 333e 3e35 823d 98a8 d73c bc67 46bc
00000390: 4e88 053d acd2 ec3b e651 54bd bb81 16bd
000003a0: 8c17 973d fce8 06bd 7db6 dcbc fe53 56be
000003b0: c983 f1bd 7aa7 843d 39cf 8e3d 832f efbd
000003c0: c0bb 13bd 63ee 26bd f34d 2fbe babc 1dbd
000003d0: 6883 debe 958c 36be 9447 883c 5c44 32bd
000003e0: 5a2a a4bd 4196 21be 9d9a 4cbd e97f 13bd
000003f0: bb8f 19bd 3958 8fba 2d0d d83c ffc7 de3d

fc1.0.bias f4 [16]
-0.38477898 -0.028532721 -0.06480961 -0.21873227 -0.14920785 -0.07373033 -0.17892317 0.0110348575
-0.009895013 0.07000057 0.034721598 0.084346205 0.067387305 -0.1049896 -0.22794782 -0.24619716
00000000: c001 c5be 74bd e9bc e7ba 84bd 5afb 5fbe
00000010: f1c9 18be edff 96bd a337 37be 8ccb 343c
00000020: b11e 22bc 755c 8f3d 3c38 0e3d b4bd ac3d
00000030: 5b02 8a3d ca04 d7bd 276b 69be 1c1b 7cbe

fc2.weight f4 [5, 16]
-0.41893893 0.021220965 0.3371538 -0.46735868 0.036021147 -0.40974778 -0.07213445 -0.47921893
0.22027294 0.0228533 0.23503444 0.24559467 0.34639937 -0.23422311 -0.39743406 -0.19499102
-0.6688414 -0.046943065 0.10981165 -0.5749987 -0.20968752 -1.0267252 -0.5166754 0.15386239
-0.4316399 0.15016055 0.08619859 -0.010342162 0.2016454 0.51255375 -1.2230422 -0.45211896
0.016707657 -0.047307894 -0.08320375 0.15426946 0.18320699 0.167164 -0.40067375 0.11267007
0.27528912 -0.38988093 0.09042434 -0.051924948 0.22585092 0.23843424 0.6226226 0.30558026
-0.84983766 0.27722022 -1.0637696 0.11598267 -0.9040201 0.39075875 0.13768408 0.06770882
-0.400228 -0.12098141 0.29531416 -0.14425945 0.0058178334 -0.68657887 -0.46973976 0.51213473
0.67091304 -1.8397056 0.026077336 0.7624733 0.21571249 0.04896432 -0.09972566 -2.2895942
-1.3300719 0.22712961 -0.26031697 -0.19630753 -1.1194189 0.40917274 -0.9892954 -1.5753648
00000000: 2a7f d6be 97d7 ad3c 6c9f ac3e a349 efbe
00000010: e98a 133d 76ca d1be 3abb 93bd 2f5c f5be
00000020: 3b8f 613e d836 bb3c deac 703e 2b7d 7b3e
00000030: 425b b13e 2fd8 6fbe 7a7c cbbe baab 47be
00000040: 3139 2bbf 5f47 40bd eee4 e03d 1d33 13bf
00000050: 53b8 56be bb6b 83bf d744 04bf 1a8e 1d3e
00000060: e8ff dcbe b0c3 193e e388 b03d 2c72 29bc
00000070: 227c 4e3e b936 033f a68c 9cbf 237c e7be
00000080: 7fde 883c ecc5 41bd ba66 aabd d0f8 1d3e
00000090: 9d9a 3b3e 0a2d 2b3e 1c25 cdbe 91bf e63d
000000a0: b2f2 8c3e 799e c7be 6530 b93d 41af 54bd
000000b0: 7745 673e 1b28 743e 3264 1f3f 0475 9c3e
000000c0: f68e 59bf cfef 8d3e 9a29 88bf 5288 ed3d
000000d0: dc6d 67bf 8811 c83e 0efd 0c3e ecaa 8a3d
000000e0: afea ccbe 1ac5 f7bd 6b33 973e c0b8 13be
000000f0: 86a3 be3b a2c3 2fbf bb81 f0be 431b 033f
00000100: f5c0 2b3f 797b ebbf 23a0 d53c 7331 433f
00000110: bce3 5c3e d08e 483d f83c ccbd b688 12c0
00000120: cc3f aabf aa94 683e 4448 85be d704 49be
00000130: 1e49 8fbf 177f d13e 7742 7dbf 8ea5 c9bf

fc2.bias f4 [5]
0.64625525 -0.37965864 -0.8984329 -0.4314096 -0.2730555
00000000: fc70 253f 9e62 c2be b3ff 65bf b8e1 dcbe
00000010: eecd 8bbe
