ecg_model_3.pt (torch, 15455 bytes, 12 tensors)

conv1.weight f4 [1, 1, 15]
00000000: 18fb 0f3c f28b 5cbe 80cf 673d 3d99 4cbe
00000010: fc66 b8bd db20 01bf 445f 18be 2639 18bf
00000020: 1ab8 b2be e6bf 24bf 9030 1dbf 34b0 4ebe
00000030: ee64 08bd 22c5 98bd c04f 31be
0.008787893 -0.2153776 0.05659437 -0.19980331 -0.09004018 -0.5044076 -0.14880091 -0.594622
-0.34906083 -0.64355314 -0.61402225 -0.20184404 -0.03329938 -0.07459475 -0.17315578

conv2.weight f4 [1, 1, 17]
00000000: 0d7a 6dbe 21ca 043d 03ba 583d 1c33 863e
00000010: c16b e73e aa64 843e 0cf6 243f eff8 0c3f
00000020: 0993 883e bedd 03be 544f 0bbe 4d74 d73d
00000030: df72 0e3e c230 713d 3f1c bcbd 6ed4 8bbe
00000040: 3878 adbe
-0.2319109 0.032419328 0.05291177 0.26210868 0.45199397 0.2585805 0.6443794 0.5506734
0.2667468 -0.12877557 -0.1360448 0.105202295 0.13911007 0.05888439 -0.09185075 -0.27310508
-0.33880782

conv3.weight f4 [2, 1, 19]
00000000: 586d 97bd bca2 6e3c d7ab 483e d2dd 3bbe
00000010: 92fd e33c cc3f 67bc b784 edbe b2d3 a3be
00000020: c8af 11be d76c 513e 1e1e 083f 8f4a fa3e
00000030: f319 0c3f 22a7 dd3e 4d5e af3e 8fff 02be
00000040: e516 34be 726d 0abe bb34 13be 51f6 5d3d
00000050: 9ae0 4a3e 2c78 423e a90a b0bd 802c ffbd
00000060: d740 123d c3ab 733d 4d66 673e a7ef 373e
00000070: a6d0 413e 91da 333e f3e9 813e 48f6 283e
00000080: c30b 68bd 11f6 7fbe a01e 9b3c 7f6f 3fbe
00000090: 8910 b5be c849 83be
-0.073939025 0.014565166 0.19596802 -0.18346336 0.027830873 -0.014114331 -0.46390316 -0.31997448
-0.14227211 0.20451675 0.53170955 0.4888501 0.54727095 0.43291575 0.34251633 -0.127928
-0.17586859 -0.13518313 -0.14375584 0.054189984 0.19812241 0.18991154 -0.08595783 -0.124596596
0.035706367 0.059489977 0.22597618 0.17962514 0.1892725 0.17563845 0.25373802 0.16500199
-0.05665184 -0.2499621 0.018935502 -0.18694876 -0.35364178 -0.25642228

conv3.bias f4 [2]
00000000: 516b 94bd a4dd 88be
-0.072470315 -0.26731598

conv4.depthwise.weight f4 [2, 1, 21]
00000000: 8cd1 97bd 529a 693e 1d9d 863e 32a3 29be
00000010: bf8d e9be 5c6b 89be 649f 5ebe cf5b 3ebe
00000020: e1e1 7dbe 8c82 bc3e 854e b63e 313f a0bc
00000030: 46fd 373d e0e7 a1bd c526 783e d261 1c3d
00000040: 1c7a d1bd 01be d3be 2d06 53be f924 723d
00000050: d406 513e d0a5 3cbe f0f0 f23d abd8 b7bd
00000060: e613 79be 9b61 7bbe b7a1 b1be c716 90be
00000070: 3554 bdbd d800 9abc d45a 2e3e ebe6 663e
00000080: e58b 1e3e ec3f 6d3d d637 613d 5430 e3bc
00000090: ac0a ad3e e687 bf3e 6178 71bd 6ca7 c9bd
000000a0: e7ab bcbd 6d2d fd3b
-0.07413015 0.22812775 0.26291743 -0.1656616 -0.45615956 -0.2683972 -0.2174049 -0.1858971
-0.24793197 0.3681835 0.3560678 -0.019561382 0.044919275 -0.07905555 0.2423354 0.038179226
-0.10228369 -0.413559 -0.20607825 0.05911729 0.20412761 -0.18422627 0.118623614 -0.08976873
-0.24323997 -0.24548952 -0.3469369 -0.28142378 -0.09244577 -0.01879923 0.17026836 0.22549026
0.15483053 0.05792229 0.05498489 -0.027733006 0.33797204 0.3740837 -0.058952693 -0.09846386
-0.09212475 0.0077263624

conv4.depthwise.bias f4 [2]
00000000: 8a5a e4bc 257c acbe
-0.027875204 -0.33688465

conv4.pointwise.weight f4 [4, 2, 1]
00000000: 663b 043f f3a1 02bd 3551 d3be f30d 36bf
00000010: 489b 773f d5c7 643f ecd5 733e b7a2 24bf
0.51653135 -0.031892728 -0.41272894 -0.71115035 0.96721315 0.8936742 0.23812073 -0.64310783

conv4.pointwise.bias f4 [4]
00000000: 3437 213f 1630 153f a992 77be 413b 603f
0.6297486 0.582765 -0.2417704 0.87590414

fc1.0.weight f4 [16, 152]
00000000: f4cd 13be c7f5 433e 7d40 cd3e b993 223d
00000010: 5933 37bd f86a 67be 841c 45be 70b5 813c
00000020: e7f6 213e e801 363e c064 21be 4508 b7be
00000030: 2b00 75be 1ff4 2f3d 41c5 943e cd9f 463e
00000040: 7618 883d 750a 7a3d 3f49 e53d b3b6 0abd
00000050: 7486 383d 1cf4 313e 6f27 f43d 2820 183d
00000060: ac69 ea3b 84e5 0d3e e418 4b3e a012 c53d
00000070: 0b47 92bd 349c fd3d 3067 c53d b2f6 5c3d
00000080: 1efb dcbd 63e6 503b e77e a6bd f4e3 313d
00000090: 6d17 43bb 7ebe 473e 2b4b 02bd be2d a1be
000000a0: ddc4 08bf be1b adbd 4d3d bf3c 34d5 5f3d
000000b0: 5d04 573d 3e29 373d fcd2 51be 021c 62be
000000c0: f0a1 3c3e 4d92 913e 806e 203e 6400 7fba
000000d0: 1250 21be 9c49 f6bd 3867 e7bc 7445 933c
000000e0: 6d98 b7bd a402 c83c 9d2b b33c a255 9bbd
000000f0: ce39 0bbe e2ea 82bc 491c cb3c c3ab 98bd
00000100: 844c 78bd d45e 8cbd a589 dabd 7237 64be
00000110: a3c1 8bbe 5c0d 3fbe 34ff bfbd a53b c4bd
00000120: b98a f4bd 0a4f 1bbe cf68 8ebe 8352 99be
00000130: 5eba 7c3d 7a7e c43e 1238 2d3f 1efd 293e
00000140: 3962 c5bd 58d6 21be bee1 04bd 72c1 36bc
00000150: e0c9 4e3e 6040 753e 7d42 a2be d3d3 acbe
00000160: d4fe 14be 94e6 f93d 5e62 c13e c993 6f3e
00000170: 4535 9d3d d144 96bd 152a ef3d e9c5 c53c
00000180: 9598 aabb 47a5 c53d be6a 8d3d 62c9 61bd
00000190: 95c8 7dbd 61ab 4e3d 9e33 ca3d 8846 3e3d
000001a0: 1b86 ec3c d3d0 4e3e 2b15 c13e 66e6 313e
000001b0: 6bb2 a53b 4c46 a23d 041e d03c 38bc 743e
000001c0: 200c 813e 7378 6c3e 07ad e6bd b02e 83be
000001d0: 32b0 a8be 87ec 42be d506 30be 4a4e b4bb
000001e0: fbca a6bd 94fd 3bbe ae75 fdbd 2de9 683b
000001f0: f938 d63d 0ac2 143e f572 803b b8b9 403e
00000200: 5afa 653e 6380 c43d 1a00 cf3d 9fbe d03d
00000210: 2d3b 563e 1605 8f3c 55aa e53d 8fb8 c83c
00000220: 6298 b43d 3d69 a1bb 60f8 c3bd e98d 28bd
00000230: a651 d7bc 67a3 093d 1c0b 4dbd b56f e4bd
00000240: e4d8 b1bc ab88 40be 449e 7cbe 3f09 1cbe
00000250: 8ae0 28be 9c1e 2dbe 1b73 25be a661 6dbe
00000260: 0a8c da3e 6411 b93d 8a11 17be 1cbf 503c
00000270: c337 ba3d 8046 af3c f870 45be 5628 afbd
00000280: 91ea 7fbe b02a eb3c 7989 533e 7e79 3f3e
00000290: 7063 053d 7c47 86bd 5e9c 2bbe 643d dabd
000002a0: fe0f 943d 8b95 6c3d 62eb 823e a468 893e
000002b0: a4a6 0d3e 3f63 7a3d 7005 e8bd 648b 4dbe
000002c0: 7c97 1abe f745 123d a87b 643d 37ca 1b3e
000002d0: 23b0 8e3d 8442 243e 5a00 833d 1037 5d3d
000002e0: 1b38 81bc 5b81 c33c 9949 ee3d a3af 693d
000002f0: 99f5 c03d 4cce 303d 6846 cabd 31da bb3d
00000300: 2c47 b33d bdf8 28bd 9dd8 37be e6fe e9bd
00000310: 3910 ba3c 3894 233e bd10 5b3e 9353 9f3e
00000320: 6711 6e3d f5c0 dd3b e270 d8bc f009 28bd
00000330: 0a38 1e3d 9f42 d53d 3e9d 7e3d ef27 02be
00000340: 0a3a 23be e3ef 0abe 0d95 b6bd a905 3ebe
00000350: 6db3 0c3d 2c1d 1d3e 1d36 163e e3f7 373d
00000360: ad1d 0cbd 672d 6f3c 0d4f ffbc b51c 9dbd
00000370: 4625 c639 dd0c ddbd efdd e7bd 0807 2dbd
00000380: 5745 f7bd a6de 47be a9f5 75be f1d5 debd
00000390: 68f3 153e 74a4 d63c d981 11be c438 bd3d
000003a0: 37cd 043e 8ca5 023e 4572 5bbd 03ed 0abe
000003b0: cbdc 45be d1dc 47be 8c25 5e3d 29b4 393e
000003c0: 5c3e a83c 6f95 2f3d 387a cbbd 3178 48be
000003d0: eb79 a5bd 2729 1e3e 4802 363e a718 923e
000003e0: ee90 973d 7a91 223e adaf babd 948b 4abe
000003f0: 7556 70be 8464 bebd 8114 3a3d 0a9a 033e
-0.14434034 0.19136725 0.40088263 0.03969166 -0.044726703 -0.22599399 -0.19249159 0.015833586
0.15816842 0.17774165 -0.1576109 -0.35748497 -0.23925845 0.04295742 0.29056743 0.19396897
0.066452906 0.06104513 0.11195611 -0.03386564 0.0450501 0.17378277 0.11921584 0.03714004
0.0071537104 0.13857085 0.19833714 0.09622693 -0.071424566 0.12383309 0.09638822 0.053946204
-0.10790084 0.0031875602 -0.081296735 0.043430284 -0.0029768602 0.19506261 -0.031809967 -0.3148021
-0.5342539 -0.08452557 0.02334466 0.054646686 0.052494396 0.044717066 -0.2049064 -0.22080997
0.18421149 0.2843193 0.15667152 -0.0009727536 -0.157532 -0.120257586 -0.02824746 0.017977454
-0.0896462 0.024415322 0.021871382 -0.075846925 -0.1359627 -0.015981141 0.02479376 -0.07454636
-0.060619846 -0.068540245 -0.10670785 -0.22286776 -0.2729617 -0.1865744 -0.09374848 -0.09581689
-0.11940522 -0.1516687 -0.27814338 -0.29945764 0.06170117 0.38377744 0.6766368 0.16600463
-0.09637875 -0.15804422 -0.032441847 -0.011154519 0.20194197 0.23950338 -0.31691352 -0.3375536
-0.14550334 0.122021824 0.3777036 0.2339622 0.07676176 -0.073373444 0.116779484 0.024142222
-0.0052061775 0.09650665 0.06905125 -0.055123694 -0.061958868 0.05045641 0.098731264 0.046453983
0.02887254 0.20196848 0.37711462 0.17373046 0.0050566695 0.07923564 0.025404938 0.23899925
0.25204563 0.23092823 -0.11263471 -0.25621557 -0.32946926 -0.1903554 -0.17190106 -0.005502497
-0.08144184 -0.18358451 -0.12375961 0.0035539374 0.104600854 0.14527145 0.003919954 0.18820846
0.22458783 0.095948 0.10107441 0.10192608 0.20921011 0.01745848 0.11214129 0.024502067
0.08818127 -0.0049258755 -0.09568858 -0.04115096 -0.02628405 0.0336031 -0.050059423 -0.11154119
-0.021709867 -0.18802135 -0.24669749 -0.15237902 -0.16491905 -0.16906208 -0.1615719 -0.23181781
0.42684966 0.0903652 -0.14752784 0.0127408765 0.09092667 0.021395922 -0.19281375 -0.08552615
-0.24991824 0.028706878 0.2065791 0.1869869 0.032565534 -0.06556603 -0.16758868 -0.106562406
0.07229613 0.057759803 0.25570208 0.26837647 0.138331 0.061129805 -0.11329162 -0.20072705
-0.15096849 0.035711255 0.05578199 0.15213858 0.06967189 0.16040999 0.063965514 0.05400759
-0.015773823 0.023865392 0.116351314 0.057052266 0.09421844 0.04316549 -0.0987671 0.09172476
0.08753809 -0.04125284 -0.17953725 -0.11425571 0.022712814 0.1597451 0.21393104 0.3111845
0.058122065 0.006767387 -0.026421014 -0.041025102 0.03862766 0.104130976 0.062161677 -0.12710546
-0.15940109 -0.13568072 -0.08915148 -0.18556847 0.0343508 0.1534316 0.1466908 0.044914138
-0.03420799 0.014598227 -0.031165624 -0.07671491 0.00037793274 -0.10793469 -0.11321627 -0.042243034
-0.120737724 -0.19518527 -0.24019493 -0.1088065 0.14643633 0.026201464 -0.14209689 0.09239343
0.12968908 0.12758464 -0.053575773 -0.13566975 -0.19322507 -0.19517829 0.054235026 0.18135132
0.020537548 0.04286712 -0.09935421 -0.195771 -0.08079895 0.15445386 0.17774308 0.28534433
0.0740069 0.15875807 -0.09115539 -0.19779807 -0.2347048 -0.092965156 0.04542971 0.1285173

fc1.0.bias f4 [16]
00000000: 3a8c a2bd aa6a 81bd 45a0 98bd e711 003d
00000010: 151f 68bd 0fbb c43a a47f d73d 87ca 6e3e
00000020: 7e02 28bc b193 90be 4b00 96be c8d1 29be
00000030: fb9f 4bbe 9700 b73e 83b3 0bbe 770c 89bd
-0.07936902 -0.06319173 -0.07452444 0.031267073 -0.056670267 0.0015009361 0.105223924 0.23319446
-0.0102545 -0.2823768 -0.292971 -0.16583931 -0.19885246 0.35742638 -0.13642697 -0.066918306

fc2.weight f4 [5, 16]
00000000: 40b8 5e3e 46b0 3d3e 2dda 2d3e 53da 853e
00000010: f47f 85bc 30c0 983e 1381 ec3c 72d4 b2bd
00000020: 8bf1 aebe 96ad 7fbd 92a9 9fbd 9db8 b93d
00000030: c6be 213e edf0 6c3d 95ce babe 0aad 52be
00000040: e1ed a9be 804b 64be 7a5f 3c3c fb23 5e3e
00000050: 6193 96be fbb4 7cbe b83b c3bc ae0b 47bf
00000060: f36f cc3e 5d51 24bf e6f0 05bf ad60 cfbd
00000070: f386 723e 99be 0a3e 6f36 19bd 7a1e 39bd
00000080: a83e e03d 2a9a fb3d 57bc 373e a9ca a93d
00000090: 7054 79bd f471 4c3c d0d9 fbbd 7c6b f23d
000000a0: 6cfb 423d 7f3b acbe 33d7 413e 0bda 653e
000000b0: da2c 5e3d c938 86be b704 e2bd 2ac6 223e
000000c0: 85d9 b73e 37b2 1ebe 7bea 1b3d 79b8 283d
000000d0: e6c3 ddbe 9034 28be 0cb4 30bf e2ee 09be
000000e0: 45f5 44bf 7091 b73e 1a10 75be d530 83be
000000f0: 221b d4bd dff5 833c f0da 903e da90 b73e
00000100: e79a 64bf def2 58bf 61df 3fbf f290 87bf
00000110: a682 0dbf f50e a23d f2a9 3fbe 5c49 93be
00000120: 3e59 1d3e d6de 38bf 2d3e 68bf e2a8 bf3e
00000130: abd8 90be 80df 043e fd93 203e f25b 9c3e
0.21749973 0.18524274 0.16977759 0.2614313 -0.016296364 0.29834127 0.028870141 -0.08731927
-0.34168658 -0.062421404 -0.07796015 0.09068415 0.1579543 0.057846952 -0.36485735 -0.20573822
-0.331893 -0.22294426 0.011497373 0.21693413 -0.29409316 -0.24678414 -0.023832187 -0.77752197
0.3992916 -0.6418665 -0.52320707 -0.10125861 0.23684292 0.1354927 -0.037405428 -0.04519508
0.10949451 0.12285264 0.1794294 0.082906075 -0.06087154 0.01247834 -0.12297404 0.11836907
0.047603056 -0.33639142 0.18929748 0.22446458 0.054241993 -0.262152 -0.110360555 0.15895906
0.35908142 -0.15497671 0.038065415 0.04119155 -0.4331352 -0.16426301 -0.6902473 -0.13470033
-0.7693675 0.35853148 -0.23931924 -0.25623193 -0.10356738 0.016108451 0.28292036 0.358527
-0.8929886 -0.84745586 -0.74950224 -1.0591109 -0.5527748 0.07913009 -0.18717173 -0.28766906
0.15366074 -0.7221502 -0.9071987 0.37433535 -0.28290305 0.12975883 0.15681453 0.305389

fc2.bias f4 [5]
00000000: a321 913e c61d c13d 2184 37bf c988 bc3e
00000010: 6741 7bbe
0.28345975 0.09429507 -0.7168599 0.3682311 -0.24536668
